…
    ('skip_prk_steps', True)
])

DDIMScheduler {
  "_class_name": "DDIMScheduler",
  "_diffusers_version": "0.20.1",
  "beta_end": 0.012,
  "beta_schedule": "scaled_linear",
  "beta_start": 0.00085,
  "clip_sample": false,
  "clip_sample_range": 1.0,
  "dynamic_thresholding_ratio": 0.995,
  "num_train_timesteps": 1000,
  "prediction_type": "epsilon",
  "rescale_betas_zero_snr": false,
  "sample_max_value": 1.0,
  "set_alpha_to_one": false,
  "skip_prk_steps": true,
  "steps_offset": 1,
  "thresholding": false,
  "timestep_spacing": "leading",
  "trained_betas": null
}

UNet3DConditionModel(
  (conv_in): Conv2d(4, 320, kernel_size=(3, 3), stride=(1, 1), padding=(1, 1))
  (time_proj): Timesteps()
  (time_embedding): TimestepEmbedding(
    (linear_1): Linear(in_features=320, out_features=1280, bias=True)
    (act): SiLU()
    (linear_2): Linear(in_features=1280, out_features=1280, bias=True)
  )
  (transformer_in): TransformerTemporalModel(
    (norm): GroupNorm(32, 320, eps=1e-06, affine=True)
    (proj_in): Linear(in_features=320, out_features=512, bias=True)
    (transformer_blocks): ModuleList(
      (0): BasicTransformerBlock(
        (norm1): LayerNorm((512,), eps=1e-05, elementwise_affine=True)
        (attn1): Attention(
          (to_q): Linear(in_features=512, out_features=512, bias=False)
          (to_k): Linear(in_features=512, out_features=512, bias=False)
        (0-1): 2 x TemporalConvLayer(
          (conv1): Sequential(
            (0): GroupNorm(32, 320, eps=1e-05, affine=True)
            (1): SiLU()
            (2): Conv3d(320, 320, kernel_size=(3, 1, 1), stride=(1, 1, 1), padding=(1, 0, 0))
          )
          (conv2): Sequential(
            (0): GroupNorm(32, 320, eps=1e-05, affine=True)
            (1): SiLU()
            (2): Dropout(p=0.1, inplace=False)
            (3): Conv3d(320, 320, kernel_size=(3, 1, 1), stride=(1, 1, 1), padding=(1, 0, 0))
          )
          (conv3): Sequential(
            (0): GroupNorm(32, 320, eps=1e-05, affine=True)
            (1): SiLU()
            (2): Dropout(p=0.1, inplace=False)
            (3): Conv3d(320, 320, kernel_size=(3, 1, 1), stride=(1, 1, 1), padding=(1, 0, 0))
          )
          (conv4): Sequential(
            (0): GroupNorm(32, 320, eps=1e-05, affine=True)
            (1): SiLU()
            (2): Dropout(p=0.1, inplace=False)
            (3): Conv3d(320, 320, kernel_size=(3, 1, 1), stride=(1, 1, 1), padding=(1, 0, 0))
          )
        )
      )
      (attentions): ModuleList(
        (0-1): 2 x Transformer2DModel(
          (norm): GroupNorm(32, 320, eps=1e-06, affine=True)
          (proj_in): LoRACompatibleLinear(in_features=320, out_features=320, bias=True)
          (transformer_blocks): ModuleList(
            (0): BasicTransformerBlock(
              (norm1): LayerNorm((320,), eps=1e-05, elementwise_affine=True)
              (attn1): Attention(
                (to_q): Linear(in_features=320, out_features=320, bias=False)
                (to_k): Linear(in_features=320, out_features=320, bias=False)
                (to_v): Linear(in_features=320, out_features=320, bias=False)
                (to_out): ModuleList(
                  (0): Linear(in_features=320, out_features=320, bias=True)
                  (1): Dropout(p=0.0, inplace=False)
                )
              )
              (norm2): LayerNorm((320,), eps=1e-05, elementwise_affine=True)
              (attn2): Attention(
                (to_q): Linear(in_features=320, out_features=320
              (attn2): Attention(
                (to_q): Linear(in_features=320, out_features=320, bias=False)
                (to_k): Linear(in_features=320, out_features=320, bias=False)
                (to_v): Linear(in_features=320, out_features=320, bias=False)
                (to_out): ModuleList(
                  (0): Linear(in_features=320, out_features=320, bias=True)
                  (1): Dropout(p=0.0, inplace=False)
                )
              )
              (norm3): LayerNorm((320,), eps=1e-05, elementwise_affine=True)
              (ff): FeedForward(
                (net): ModuleList(
                  (0): GEGLU(
                    (proj): LoRACompatibleLinear(in_features=320, out_features=2560, bias=True)
                  )
                  (1): Dropout(p=0.0, inplace=False)
                  (2): LoRACompatibleLinear(in_features=1280, out_features=320, bias=True)
                )
              )
            )
          )
          (proj_out): Linear(in_features=320, out_features=320, bias=True)
        )
      )
      (downsamplers): ModuleList(
        (0): Downsample2D(
          (conv): LoRACompatibleConv(320, 320, kernel_size=(3, 3), stride=(2, 2), padding=(1, 1))
        )
      )
    )
    (1): CrossAttnDownBlock3D(
      (resnets): ModuleList(
        (0): ResnetBlock2D(
          (norm1): GroupNorm(32, 320, eps=1e-05, affine=True)
          (conv1): LoRACompatibleConv(320, 640, kernel_size=(3, 3), stride=(1, 1), padding=(1, 1))
          (time_emb_proj): LoRACompatibleLinear(in_features=1280, out_features=640, bias=True)
          (norm2): GroupNorm(32, 640, eps=1e-05, affine=True)
          (dropout): Dropout(p=0.0, inplace=False)
          (conv2): LoRACompatibleConv(640, 640, kernel_size=(3, 3), stride=(1, 1), padding=(1, 1))
          (nonlinearity): SiLU()
          (conv_shortcut): LoRACompatibleConv(320, 640, kernel_size=(1, 1), stride=(1, 1))
        )
        (1): ResnetBlock2D(
          (norm1): GroupNorm(32, 640, eps=1e-05, affine=True)
          (conv1): LoRACompatibleConv(640, 640, kernel_size=(3, 3), stride=(1, 1), padding=(
              (norm1): LayerNorm((640,), eps=1e-05, elementwise_affine=True)
              (attn1): Attention(
                (to_q): Linear(in_features=640, out_features=640, bias=False)
                (to_k): Linear(in_features=640, out_features=640, bias=False)
                (to_v): Linear(in_features=640, out_features=640, bias=False)
                (to_out): ModuleList(
                  (0): Linear(in_features=640, out_features=640, bias=True)
                  (1): Dropout(p=0.0, inplace=False)
                )
              )
              (norm2): LayerNorm((640,), eps=1e-05, elementwise_affine=True)
              (attn2): Attention(
                (to_q): Linear(in_features=640, out_features=640, bias=False)
                (to_k): Linear(in_features=1024, out_features=640, bias=False)
                (to_v): Linear(in_features=1024, out_features=640, bias=False)
                (to_out): ModuleList(
                  (0): Linear(in_features=640, out_features=640, bias=True)
                  (1): Dropout(p=0.0, inplace=False)
                )
              )
              (norm3): LayerNorm((640,), eps=1e-05, elementwise_affine=True)
              (ff): FeedForward(
                (net): ModuleList(
                  (0): GEGLU(
                    (proj): LoRACompatibleLinear(in_features=640, out_features=5120, bias=True)
                  )
                  (1): Dropout(p=0.0, inplace=False)
                  (2): LoRACompatibleLinear(in_features=2560, out_features=640, bias=True)
                )
              )
            )
          )
          (proj_out): LoRACompatibleLinear(in_features=640, out_features=640, bias=True)
        )
      )
      (temp_attentions): ModuleList(
        (0-1): 2 x TransformerTemporalModel(
          (norm): GroupNorm(32, 640, eps=1e-06, affine=True)
          (proj_in): Linear(in_features=640, out_features=640, bias=True)
          (transformer_blocks): ModuleList(
            (0): BasicTransformerBlock(
              (norm1): LayerNorm((640,), eps=1e-05, elementwise_affine=True)
              (attn1): Attention(
                (to_q): Linear(in_features=640, out_features=640, bias=False)
                (to_k): Linear(in_features
          (time_emb_proj): LoRACompatibleLinear(in_features=1280, out_features=1280, bias=True)
          (norm2): GroupNorm(32, 1280, eps=1e-05, affine=True)
          (dropout): Dropout(p=0.0, inplace=False)
          (conv2): LoRACompatibleConv(1280, 1280, kernel_size=(3, 3), stride=(1, 1), padding=(1, 1))
          (nonlinearity): SiLU()
          (conv_shortcut): LoRACompatibleConv(640, 1280, kernel_size=(1, 1), stride=(1, 1))
…
          (conv1): LoRACompatibleConv(1280, 1280, kernel_size=(3, 3), stride=(1, 1), padding=(1, 1))
          (time_emb_proj): LoRACompatibleLinear(in_features=1280, out_features=1280, bias=True)
          (norm2): GroupNorm(32, 1280, eps=1e-05, affine=True)
          (dropout): Dropout(p=0.0, inplace=False)
          (conv2): LoRACompatibleConv(1280, 1280, kernel_size=(3, 3), stride=(1, 1), padding=(1, 1))
          (nonlinearity): SiLU()
        )
      )
      (temp_convs): ModuleList(
        (0-1): 2 x TemporalConvLayer(
          (conv1): Sequential(
            (0): GroupNorm(32, 1280, eps=1e-05, affine=True)
            (1): SiLU()
            (2): Conv3d(1280, 1280, kernel_size=(3, 1, 1), stride=(1, 1, 1), padding=(1, 0, 0))
          )
          (conv2): Sequential(
            (0): GroupNorm(32, 1280, eps=1e-05, affine=True)
            (1): SiLU()
            (2): Dropout(p=0.1, inplace=False)
            (3): Conv3d(1280, 1280, kernel_size=(3, 1, 1), stride=(1, 1, 1), padding=(1, 0, 0))
          )
          (conv3): Sequential(
            (0): GroupNorm(32, 1280, eps=1e-05, affine=True)
            (1): SiLU()
            (2): Dropout(p=0.1, inplace=False)
            (3): Conv3d(1280, 1280, kernel_size=(3, 1, 1), stride=(1, 1, 1), padding=(1, 0, 0))
          )
          (conv4): Sequential(
            (0): GroupNorm(32, 1280, eps=1e-05, affine=True)
            (1): SiLU()
            (2): Dropout(p=0.1, inplace=False)
            (3): Conv3d(1280, 1280, kernel_size=(3, 1, 1), stride=(1, 1, 1), padding=(1, 0, 0))
          )
        )
      )

            )
          )
          (proj_out): LoRACompatibleLinear(in_features=1280, out_features=1280, bias=True)
        )
      )
      (temp_attentions): ModuleList(
        (0-1): 2 x TransformerTemporalModel(
          (norm): GroupNorm(32, 1280, eps=1e-06, affine=True)
          (proj_in): Linear(in_features=1280, out_features=1280, bias=True)
          (transformer_blocks): ModuleList(
            (0): BasicTransformerBlock(
              (norm1): LayerNorm((1280,), eps=1e-05, elementwise_affine=True)
              (attn1): Attention(
                (to_q): Linear(in_features=1280, out_features=1280, bias=False)
                (to_k): Linear(in_features=1280, out_features=1280, bias=False)
                (to_v): Linear(in_features=1280, out_features=1280, bias=False)
                (to_out): ModuleList(
                  (0): Linear(in_features=1280, out_features=1280, bias=True)
                  (1): Dropout(p=0.0, inplace=False)
                )
              )
              (norm2): LayerNorm((1280,), eps=1e-05, elementwise_affine=True)
              (attn2): Attention(
                (to_q): Linear(in_features=1280, out_features=1280, bias=False)
                (to_k): Linear(in_features=1280, out_features=1280, bias=False)
                (to_v): Linear(in_features=1280, out_features=1280, bias=False)
                (to_out): ModuleList(
                  (0): Linear(in_features=1280, out_features=1280, bias=True)
                  (1): Dropout(p=0.0, inplace=False)
                )
              )
              (norm3): LayerNorm((1280,), eps=1e-05, elementwise_affine=True)
              (ff): FeedForward(
                (net): ModuleList(
                  (0): GEGLU(
                    (proj): LoRACompatibleLinear(in_features=1280, out_features=10240, bias=True)
                  )
                  (1): Dropout(p=0.0, inplace=False)
                  (2): LoRACompatibleLinear(in_features=5120, out_features=1280, bias=True)
                )
              )
            )
          )
          (proj_out): Linear(in_features=1280, out_features=1280, bias=True)

        (0-2): 3 x ResnetBlock2D(
          (norm1): GroupNorm(32, 2560, eps=1e-05, affine=True)
          (conv1): LoRACompatibleConv(2560, 1280, kernel_size=(3, 3), stride=(1, 1), padding=(1, 1))
          (time_emb_proj): LoRACompatibleLinear(in_features=1280, out_features=1280, bias=True)
          (norm2): GroupNorm(32, 1280, eps=1e-05, affine=True)
          (dropout): Dropout(p=0.0, inplace=False)
          (conv2): LoRACompatibleConv(1280, 1280, kernel_size=(3, 3), stride=(1, 1), padding=(1, 1))
          (nonlinearity): SiLU()
          (conv_shortcut): LoRACompatibleConv(2560, 1280, kernel_size=(1, 1), stride=(1, 1))
        )
      )
      (temp_convs): ModuleList(
        (0-2): 3 x TemporalConvLayer(
          (conv1): Sequential(
            (0): GroupNorm(32, 1280, eps=1e-05, affine=True)
            (1): SiLU()
            (2): Conv3d(1280, 1280, kernel_size=(3, 1, 1), stride=(1, 1, 1), padding=(1, 0, 0))
          )
          (conv2): Sequential(
            (0): GroupNorm(32, 1280, eps=1e-05, affine=True)
            (1): SiLU()
            (2): Dropout(p=0.1, inplace=False)
            (3): Conv3d(1280, 1280, kernel_size=(3, 1, 1), stride=(1, 1, 1), padding=(1, 0, 0))
          )
          (conv3): Sequential(
            (0): GroupNorm(32, 1280, eps=1e-05, affine=True)
            (1): SiLU()
            (2): Dropout(p=0.1, inplace=False)
            (3): Conv3d(1280, 1280, kernel_size=(3, 1, 1), stride=(1, 1, 1), padding=(1, 0, 0))
          )
          (conv4): Sequential(
            (0): GroupNorm(32, 1280, eps=1e-05, affine=True)
            (1): SiLU()
            (2): Dropout(p=0.1, inplace=False)
            (3): Conv3d(1280, 1280, kernel_size=(3, 1, 1), stride=(1, 1, 1), padding=(1, 0, 0))
          )
        )
      )
      (upsamplers): ModuleList(
        (0): Upsample2D(
          (conv): LoRACompatibleConv(1280, 1280, kernel_size=(3, 3), stride=(1, 1), padding=(1, 1))
        )
      )
    )
    (1): CrossAt
            (3): Conv3d(1280, 1280, kernel_size=(3, 1, 1), stride=(1, 1, 1), padding=(1, 0, 0))
          )
          (conv3): Sequential(
            (0): GroupNorm(32, 1280, eps=1e-05, affine=True)
            (1): SiLU()
            (2): Dropout(p=0.1, inplace=False)
            (3): Conv3d(1280, 1280, kernel_size=(3, 1, 1), stride=(1, 1, 1), padding=(1, 0, 0))
          )
          (conv4): Sequential(
            (0): GroupNorm(32, 1280, eps=1e-05, affine=True)
            (1): SiLU()
            (2): Dropout(p=0.1, inplace=False)
            (3): Conv3d(1280, 1280, kernel_size=(3, 1, 1), stride=(1, 1, 1), padding=(1, 0, 0))
          )
        )
      )
      (attentions): ModuleList(
        (0-2): 3 x Transformer2DModel(
          (norm): GroupNorm(32, 1280, eps=1e-06, affine=True)
          (proj_in): LoRACompatibleLinear(in_features=1280, out_features=1280, bias=True)
          (transformer_blocks): ModuleList(
            (0): BasicTransformerBlock(
              (norm1): LayerNorm((1280,), eps=1e-05, elementwise_affine=True)
              (attn1): Attention(
                (to_q): Linear(in_features=1280, out_features=1280, bias=False)
                (to_k): Linear(in_features=1280, out_features=1280, bias=False)
                (to_v): Linear(in_features=1280, out_features=1280, bias=False)
                (to_out): ModuleList(
                  (0): Linear(in_features=1280, out_features=1280, bias=True)
                  (1): Dropout(p=0.0, inplace=False)
                )
              )
              (norm2): LayerNorm((1280,), eps=1e-05, elementwise_affine=True)
              (attn2): Attention(
                (to_q): Linear(in_features=1280, out_features=1280, bias=False)
                (to_k): Linear(in_features=1024, out_features=1280, bias=False)
                (to_v): Linear(in_features=1024, out_features=1280, bias=False)
                (to_out): ModuleList(
                  (0): Linear(in_features=1280, out_features=1280, bias=True)
                  (1): Dropout(p=0.0, inplace=False)
                )
              )
              (norm3): LayerNorm((1280,), eps=1e-05, elementwise_affine=True)
              (ff): FeedForward(
                (net): ModuleL
              (norm3): LayerNorm((1280,), eps=1e-05, elementwise_affine=True)
              (ff): FeedForward(
                (net): ModuleList(
                  (0): GEGLU(
                    (proj): LoRACompatibleLinear(in_features=1280, out_features=10240, bias=True)
                  )
                  (1): Dropout(p=0.0, inplace=False)
                  (2): LoRACompatibleLinear(in_features=5120, out_features=1280, bias=True)
                )
              )
            )
          )
          (proj_out): Linear(in_features=1280, out_features=1280, bias=True)
        )
      )
      (upsamplers): ModuleList(
        (0): Upsample2D(
          (conv): LoRACompatibleConv(1280, 1280, kernel_size=(3, 3), stride=(1, 1), padding=(1, 1))
        )
      )
    )
    (2): CrossAttnUpBlock3D(
      (resnets): ModuleList(
        (0): ResnetBlock2D(
          (norm1): GroupNorm(32, 1920, eps=1e-05, affine=True)
          (conv1): LoRACompatibleConv(1920, 640, kernel_size=(3, 3), stride=(1, 1), padding=(1, 1))
…
          (norm2): GroupNorm(32, 640, eps=1e-05, affine=True)
          (dropout): Dropout(p=0.0, inplace=False)
          (conv2): LoRACompatibleConv(640, 640, kernel_size=(3, 3), stride=(1, 1), padding=(1, 1))
          (nonlinearity): SiLU()
          (conv_shortcut): LoRACompatibleConv(1280, 640, kernel_size=(1, 1), stride=(1, 1))
        )
        (2): ResnetBlock2D(

          (norm): GroupNorm(32, 640, eps=1e-06, affine=True)
          (proj_in): LoRACompatibleLinear(in_features=640, out_features=640, bias=True)
          (transformer_blocks): ModuleList(
            (0): BasicTransformerBlock(
              (norm1): LayerNorm((640,), eps=1e-05, elementwise_affine=True)
              (attn1): Attention(
                (to_q): Linear(in_features=640, out_features=640, bias=False)
                (to_k): Linear(in_features=640, out_features=640, bias=False)
                (to_v): Linear(in_features=640, out_features=640, bias=False)
                (to_out): ModuleList(
                  (0): Linear(in_features=640, out_features=640, bias=True)
                  (1): Dropout(p=0.0, inplace=False)
                )
              )
              (norm2): LayerNorm((640,), eps=1e-05, elementwise_affine=True)
              (attn2): Attention(
                (to_q): Linear(in_features=640, out_features=640, bias=False)
                (to_k): Linear(in_features=1024, out_features=640, bias=False)
                (to_v): Linear(in_features=1024, out_features=640, bias=False)
                (to_out): ModuleList(
                  (0): Linear(in_features=640, out_features=640, bias=True)
                  (1): Dropout(p=0.0, inplace=False)
                )
              )
              (norm3): LayerNorm((640,), eps=1e-05, elementwise_affine=True)
              (ff): FeedForward(
                (net): ModuleList(
                  (0): GEGLU(
                    (proj): LoRACompatibleLinear(in_features=640, out_features=5120, bias=True)
                  )
                  (1): Dropout(p=0.0, inplace=False)
                  (2): LoRACompatibleLinear(in_features=2560, out_features=640, bias=True)
                )
              )
            )
          )
          (proj_out): LoRACompatibleLinear(in_features=640, out_features=640, bias=True)
        )
      )
      (temp_attentions): ModuleList(
        (0-2): 3 x TransformerTemporalModel(
          (norm): GroupNorm(32, 640, eps=1e-06, affine=True)
          (proj_in): Linear(in_features=640, out_features=640, bias=True)
          (transformer_blocks): ModuleList(
            (0): BasicTransforme
          (conv): LoRACompatibleConv(640, 640, kernel_size=(3, 3), stride=(1, 1), padding=(1, 1))
        )
      )
    )
    (3): CrossAttnUpBlock3D(
      (resnets): ModuleList(
        (0): ResnetBlock2D(
          (norm1): GroupNorm(32, 960, eps=1e-05, affine=True)
          (conv1): LoRACompatibleConv(960, 320, kernel_size=(3, 3), stride=(1, 1), padding=(1, 1))
…
          (time_emb_proj): LoRACompatibleLinear(in_features=1280, out_features=320, bias=True)
          (norm2): GroupNorm(32, 320, eps=1e-05, affine=True)
          (dropout): Dropout(p=0.0, inplace=False)
          (conv2): LoRACompatibleConv(320, 320, kernel_size=(3, 3), stride=(1, 1), padding=(1, 1))
          (nonlinearity): SiLU()
          (conv_shortcut): LoRACompatibleConv(640, 320, kernel_size=(1, 1), stride=(1, 1))
        )
      )
      (temp_convs): ModuleList(
        (0-2): 3 x TemporalConvLayer(
          (conv1): Sequential(
            (0): GroupNorm(32, 320, eps=1e-05, affine=True)
            (1): SiLU()
            (2): Conv3d(320, 320, kernel_size=(3, 1, 1), stride=(1, 1, 1), padding=(1, 0, 0))
          )
          (conv2): Sequential(
            (0): GroupNorm(32, 320, eps=1e-05, affine=True)
            (1): SiLU()
            (2): Dropout(p=0.1, inplace=False)
            (3): Conv3d(320, 320, kernel_size=(3, 1, 1), stride=(1, 1, 1), padding=(1, 0, 0))
          )
          (conv3): Sequential(
            (0): GroupNorm(32, 320, eps=1e-05, affine=True)
            (1): SiLU()
            (2): Dropout(p=0.1, inplace=False)
            (3): Conv3d(320, 320, kernel_size=(3, 1, 1), stride=(1, 1, 1), padding=(1, 0, 0))
                  (0): GEGLU(
                    (proj): LoRACompatibleLinear(in_features=320, out_features=2560, bias=True)
                  )
                  (1): Dropout(p=0.0, inplace=False)
                  (2): LoRACompatibleLinear(in_features=1280, out_features=320, bias=True)
                )
              )
            )
          )
          (proj_out): LoRACompatibleLinear(in_features=320, out_features=320, bias=True)
        )
      )
      (temp_attentions): ModuleList(
        (0-2): 3 x TransformerTemporalModel(
          (norm): GroupNorm(32, 320, eps=1e-06, affine=True)
          (proj_in): Linear(in_features=320, out_features=320, bias=True)
          (transformer_blocks): ModuleList(
            (0): BasicTransformerBlock(
              (norm1): LayerNorm((320,), eps=1e-05, elementwise_affine=True)
              (attn1): Attention(
                (to_q): Linear(in_features=320, out_features=320, bias=False)
                (to_k): Linear(in_features=320, out_features=320, bias=False)
                (to_v): Linear(in_features=320, out_features=320, bias=False)
                (to_out): ModuleList(
                  (0): Linear(in_features=320, out_features=320, bias=True)
                  (1): Dropout(p=0.0, inplace=False)
                )
              )
              (norm2): LayerNorm((320,), eps=1e-05, elementwise_affine=True)
              (attn2): Attention(
                (to_q): Linear(in_features=320, out_features=320, bias=False)
                (to_k): Linear(in_features=320, out_features=320, bias=False)
                (to_v): Linear(in_features=320, out_features=320, bias=False)
                (to_out): ModuleList(
                  (0): Linear(in_features=320, out_features=320, bias=True)
                  (1): Dropout(p=0.0, inplace=False)
                )
              )
              (norm3): LayerNorm((320,), eps=1e-05, elementwise_affine=True)
              (ff): FeedForward(
                (net): ModuleList(
                  (0): GEGLU(
                    (proj): LoRACompatibleLinear(in_features=320, out_features=2560, bias=True)
                  )
                  (1): Dropou
    )
    (attentions): ModuleList(
      (0): Transformer2DModel(
        (norm): GroupNorm(32, 1280, eps=1e-06, affine=True)
        (proj_in): LoRACompatibleLinear(in_features=1280, out_features=1280, bias=True)
        (transformer_blocks): ModuleList(
          (0): BasicTransformerBlock(
            (norm1): LayerNorm((1280,), eps=1e-05, elementwise_affine=True)
            (attn1): Attention(
              (to_q): Linear(in_features=1280, out_features=1280, bias=False)
              (to_k): Linear(in_features=1280, out_features=1280, bias=False)
              (to_v): Linear(in_features=1280, out_features=1280, bias=False)
              (to_out): ModuleList(
                (0): Linear(in_features=1280, out_features=1280, bias=True)
                (1): Dropout(p=0.0, inplace=False)
              )
            )
            (norm2): LayerNorm((1280,), eps=1e-05, elementwise_affine=True)
            (attn2): Attention(
              (to_q): Linear(in_features=1280, out_features=1280, bias=False)
              (to_k): Linear(in_features=1024, out_features=1280, bias=False)
              (to_v): Linear(in_features=1024, out_features=1280, bias=False)
              (to_out): ModuleList(
                (0): Linear(in_features=1280, out_features=1280, bias=True)
                (1): Dropout(p=0.0, inplace=False)
              )
            )
            (norm3): LayerNorm((1280,), eps=1e-05, elementwise_affine=True)
            (ff): FeedForward(
              (net): ModuleList(
                (0): GEGLU(
                  (proj): LoRACompatibleLinear(in_features=1280, out_features=10240, bias=True)
                )
                (1): Dropout(p=0.0, inplace=False)
                (2): LoRACompatibleLinear(in_features=5120, out_features=1280, bias=True)
              )
            )
          )
        )
        (proj_out): LoRACompatibleLinear(in_features=1280, out_features=1280, bias=True)
      )
    )
    (temp_attentions): ModuleList(
      (0): TransformerTemporalModel(
        (norm): GroupNorm(32, 1280, eps=1e-06, affine=True)
        (proj_in): Linear(in_features=1280, out_features=1280, bias=True)
        (transformer_blocks): ModuleList(
          (0): BasicTransformerBlock(
            (norm1): LayerNorm((1280,), eps=1e-05, elementwise_affine=True)
            (attn1): Attention(
              (to_q): Linear(in_features=1280, out_features=1280, bias=False)
              (to_k): Linear(in_features=1280, out_features=1280, bias=False)
              (to_v): Linear(in_features=1280, out_features=1280, bias=False)
              (to_out): ModuleList(
                (0): Linear(in_features=1280, out_features=1280, bias=True)
                (1): Dropout(p=0.0, inplace=False)
              )
            )
            (norm2): LayerNorm((1280,), eps=1e-05, elementwise_affine=True)
            (attn2): Attention(
              (to_q): Linear(in_features=1280, out_features=1280, bias=False)
              (to_k): Linear(in_features=1280, out_features=1280, bias=False)
              (to_v): Linear(in_features=1280, out_features=1280, bias=False)
              (to_out): ModuleList(
                (0): Linear(in_features=1280, out_features=1280, bias=True)
                (1): Dropout(p=0.0, inplace=False)
              )
            )
            (norm3): LayerNorm((1280,), eps=1e-05, elementwise_affine=True)
            (ff): FeedForward(
              (net): ModuleList(
                (0): GEGLU(
                  (proj): LoRACompatibleLinear(in_features=1280, out_features=10240, bias=True)
                )
                (1): Dropout(p=0.0, inplace=False)
                (2): LoRACompatibleLinear(in_features=5120, out_features=1280, bias=True)
              )
            )
          )
        )
        (proj_out): Linear(in_features=1280, out_features=1280, bias=True)
      )
    )
  )
  (conv_norm_out): GroupNorm(32, 320, eps=1e-05, affine=True)
  (conv_act): SiLU()
  (conv_out): Conv2d(320, 4, kernel_size=(3, 3), stride=(1, 1), padding=(1, 1))
)